…
  warnings.warn("nn.{} is deprecated. Use nn.functional.interpolate instead.".format(self.name))

 Upsample(scale_factor=2, mode=nearest) ----> torch.Size([50, 128, 32, 32])

 Conv2d(128, 3, kernel_size=(3, 3), stride=(1, 1), padding=(1, 1)) ----> torch.Size([50, 3, 32, 32])

 BatchNorm2d(3, eps=1e-05, momentum=0.1, affine=True, track_running_stats=True) ----> torch.Size([50, 3, 32, 32])
torch.Size([50, 3, 32, 32])
----------------------------------------------------------------
        Layer (type)               Output Shape         Param #
================================================================
            Linear-1             [-1, 1, 32768]       3,309,568
              View-2          [-1, 128, 16, 16]               0
       BatchNorm2d-3          [-1, 128, 16, 16]             256
          Upsample-4          [-1, 128, 32, 32]               0
            Conv2d-5            [-1, 3, 32, 32]           3,459
       BatchNorm2d-6            [-1, 3, 32, 32]               6
================================================================
Total params: 3,313,289
Trainable params: 3,313,289
Non-trainable params: 0
----------------------------------------------------------------
Input size (MB): 0.00
Forward/backward pass size (MB): 1.80
Params size (MB): 12.64
Estimated Total Size (MB): 14.44
----------------------------------------------------------------